{
    "format": "layers-model",
    "generatedBy": "keras v2.4.0",
    "convertedBy": "TensorFlow.js Converter v2.6.0",
    "modelTopology": {
        "keras_version": "2.4.0",
        "backend": "tensorflow",
        "model_config": {
            "class_name": "Model",
            "config": {
                "name": "functional_1",
                "layers": [
                    {
                        "class_name": "InputLayer",
                        "config": {
                            "batch_input_shape": [
                                null,
                                3,
                                320,
                                320
                            ],
                            "dtype": "float32",
                            "sparse": false,
                            "ragged": false,
                            "name": "input"
                        },
                        "name": "input",
                        "inbound_nodes": []
                    },
                    {
                        "class_name": "ZeroPadding2D",
                        "config": {
                            "name": "728_pad",
                            "trainable": true,
                            "dtype": "float32",
                            "padding": [
                                [
                                    3,
                                    3
                                ],
                                [
                                    3,
                                    3
                                ]
                            ],
                            "data_format": "channels_first"
                        },
                        "name": "728_pad",
                        "inbound_nodes": [
                            [
                                [
                                    "input",
                                    0,
                                    0,
                                    {}
                                ]
                            ]
                        ]
                    },
                    {
                        "class_name": "Conv2D",
                        "config": {
                            "name": "728",
                            "trainable": true,
                            "dtype": "float32",
                            "filters": 64,
                            "kernel_size": [
                                7,
                                7
                            ],
                            "strides": [
                                2,
                                2
                            ],
                            "padding": "valid",
                            "data_format": "channels_first",
                            "dilation_rate": [
                                1,
                                1
                            ],
                            "groups": 1,
                            "activation": "linear",
                            "use_bias": false,
                            "kernel_initializer": {
                                "class_name": "Zeros",
                                "config": {}
                            },
                            "bias_initializer": {
                                "class_name": "Zeros",
                                "config": {}
                            },
                            "kernel_regularizer": null,
                            "bias_regularizer": null,
                            "activity_regularizer": null,
                            "kernel_constraint": null,
                            "bias_constraint": null
                        },
                        "name": "728",
                        "inbound_nodes": [
                            [
                                [
                                    "728_pad",
                                    0,
                                    0,
                                    {}
                                ]
                            ]
                        ]
                    },
                    {
                        "class_name": "BatchNormalization",
                        "config": {
                            "name": "729",
                            "trainable": true,
                            "dtype": "float32",
                            "axis": [
                                1
                            ],
                            "momentum": 0.8999999761581421,
                            "epsilon": 9.999999747378752e-06,
                            "center": true,
                            "scale": true,
                            "beta_initializer": {
                                "class_name": "Zeros",
                                "config": {}
                            },
                            "gamma_initializer": {
                                "class_name": "Ones",
                                "config": {}
                            },
                            "moving_mean_initializer": {
                                "class_name": "Zeros",
                                "config": {}
                            },
                            "moving_variance_initializer": {
                                "class_name": "Ones",
                                "config": {}
                            },
                            "beta_regularizer": null,
                            "gamma_regularizer": null,
                            "beta_constraint": null,
                            "gamma_constraint": null
                        },
                        "name": "729",
                        "inbound_nodes": [
                            [
                                [
                                    "728",
                                    0,
                                    0,
                                    {}
                                ]
                            ]
                        ]
                    },
                    {
                        "class_name": "Activation",
                        "config": {
                            "name": "730",
                            "trainable": true,
                            "dtype": "float32",
                            "activation": "relu"
                        },
                        "name": "730",
                        "inbound_nodes": [
                            [
                                [
                                    "729",
                                    0,
                                    0,
                                    {}
                                ]
                            ]
                        ]
                    },
                    {
                        "class_name": "ZeroPadding2D",
                        "config": {
                            "name": "731_pad",
                            "trainable": true,
                            "dtype": "float32",
                            "padding": [
                                [
                                    1,
                                    1
                                ],
                                [
                                    1,
                                    1
                                ]
                            ],
                            "data_format": "channels_first"
                        },
                        "name": "731_pad",
                        "inbound_nodes": [
                            [
                                [
                                    "730",
                                    0,
                                    0,
                                    {}
                                ]
                            ]
                        ]
                    },
                    {
                        "class_name": "MaxPooling2D",
                        "config": {
                            "name": "731",
                            "trainable": true,
                            "dtype": "float32",
                            "pool_size": [
                                3,
                                3
                            ],
                            "padding": "valid",
                            "strides": [
                                2,
                                2
                            ],
                            "data_format": "channels_first"
                        },
                        "name": "731",
                        "inbound_nodes": [
                            [
                                [
                                    "731_pad",
                                    0,
                                    0,
                                    {}
                                ]
                            ]
                        ]
                    },
                    {
                        "class_name": "BatchNormalization",
                        "config": {
                            "name": "733",
                            "trainable": true,
                            "dtype": "float32",
                            "axis": [
                                1
                            ],
                            "momentum": 0.8999999761581421,
                            "epsilon": 9.999999747378752e-06,
                            "center": true,
                            "scale": true,
                            "beta_initializer": {
                                "class_name": "Zeros",
                                "config": {}
                            },
                            "gamma_initializer": {
                                "class_name": "Ones",
                                "config": {}
                            },
                            "moving_mean_initializer": {
                                "class_name": "Zeros",
                                "config": {}
                            },
                            "moving_variance_initializer": {
                                "class_name": "Ones",
                                "config": {}
                            },
                            "beta_regularizer": null,
                            "gamma_regularizer": null,
                            "beta_constraint": null,
                            "gamma_constraint": null
                        },
                        "name": "733",
                        "inbound_nodes": [
                            [
                                [
                                    "731",
                                    0,
                                    0,
                                    {}
                                ]
                            ]
                        ]
                    },
                    {
                        "class_name": "Activation",
                        "config": {
                            "name": "734",
                            "trainable": true,
                            "dtype": "float32",
                            "activation": "relu"
                        },
                        "name": "734",
                        "inbound_nodes": [
                            [
                                [
                                    "733",
                                    0,
                                    0,
                                    {}
                                ]
                            ]
                        ]
                    },
                    {
                        "class_name": "Conv2D",
                        "config": {
                            "name": "735",
                            "trainable": true,
                            "dtype": "float32",
                            "filters": 128,
                            "kernel_size": [
                                1,
                                1
                            ],
                            "strides": [
                                1,
                                1
                            ],
                            "padding": "valid",
                            "data_format": "channels_first",
                            "dilation_rate": [
                                1,
                                1
                            ],
                            "groups": 1,
                            "activation": "linear",
                            "use_bias": false,
                            "kernel_initializer": {
                                "class_name": "Zeros",
                                "config": {}
                            },
                            "bias_initializer": {
                                "class_name": "Zeros",
                                "config": {}
                            },
                            "kernel_regularizer": null,
                            "bias_regularizer": null,
                            "activity_regularizer": null,
                            "kernel_constraint": null,
                            "bias_constraint": null
                        },
                        "name": "735",
                        "inbound_nodes": [
                            [
                                [
                                    "734",
                                    0,
                                    0,
                                    {}
                                ]
                            ]
                        ]
                    },
                    {
                        "class_name": "BatchNormalization",
                        "config": {
                            "name": "736",
                            "trainable": true,
                            "dtype": "float32",
                            "axis": [
                                1
                            ],
                            "momentum": 0.8999999761581421,
                            "epsilon": 9.999999747378752e-06,
                            "center": true,
                            "scale": true,
                            "beta_initializer": {
                                "class_name": "Zeros",
                                "config": {}
                            },
                            "gamma_initializer": {
                                "class_name": "Ones",
                                "config": {}
                            },
                            "moving_mean_initializer": {
                                "class_name": "Zeros",
                                "config": {}
                            },
                            "moving_variance_initializer": {
                                "class_name": "Ones",
                                "config": {}
                            },
                            "beta_regularizer": null,
                            "gamma_regularizer": null,
                            "beta_constraint": null,
                            "gamma_constraint": null
                        },
                        "name": "736",
                        "inbound_nodes": [
                            [
                                [
                                    "735",
                                    0,
                                    0,
                                    {}
                                ]
                            ]
                        ]
                    },
                    {
                        "class_name": "Activation",
                        "config": {
                            "name": "737",
                            "trainable": true,
                            "dtype": "float32",
                            "activation": "relu"
                        },
                        "name": "737",
                        "inbound_nodes": [
                            [
                                [
                                    "736",
                                    0,
                                    0,
                                    {}
                                ]
                            ]
                        ]
                    },
                    {
                        "class_name": "ZeroPadding2D",
                        "config": {
                            "name": "738_pad",
                            "trainable": true,
                            "dtype": "float32",
                            "padding": [
                                [
                                    1,
                                    1
                                ],
                                [
                                    1,
                                    1
                                ]
                            ],
                            "data_format": "channels_first"
                        },
                        "name": "738_pad",
                        "inbound_nodes": [
                            [
                                [
                                    "737",
                                    0,
                                    0,
                                    {}
                                ]
                            ]
                        ]
                    },
                    {
                        "class_name": "Conv2D",
                        "config": {
                            "name": "738",
                            "trainable": true,
                            "dtype": "float32",
                            "filters": 32,
                            "kernel_size": [
                                3,
                                3
                            ],
                            "strides": [
                                1,
                                1
                            ],
                            "padding": "valid",
                            "data_format": "channels_first",
                            "dilation_rate": [
                                1,
                                1
                            ],
                            "groups": 1,
                            "activation": "linear",
                            "use_bias": false,
                            "kernel_initializer": {
                                "class_name": "Zeros",
                                "config": {}
                            },
                            "bias_initializer": {
                                "class_name": "Zeros",
                                "config": {}
                            },
                            "kernel_regularizer": null,
                            "bias_regularizer": null,
                            "activity_regularizer": null,
                            "kernel_constraint": null,
                            "bias_constraint": null
                        },
                        "name": "738",
                        "inbound_nodes": [
                            [
                                [
                                    "738_pad",
                                    0,
                                    0,
                                    {}
                                ]
                            ]
                        ]
                    },
                    {
                        "class_name": "Concatenate",
                        "config": {
                            "name": "739",
                            "trainable": true,
                            "dtype": "float32",
                            "axis": 1
                        },
                        "name": "739",
                        "inbound_nodes": [
                            [
                                [
                                    "731",
                                    0,
                                    0,
                                    {}
                                ],
                                [
                                    "738",
                                    0,
                                    0,
                                    {}
                                ]
                            ]
                        ]
                    },
                    {
                        "class_name": "BatchNormalization",
                        "config": {
                            "name": "740",
                            "trainable": true,
                            "dtype": "float32",
                            "axis": [
                                1
                            ],
                            "momentum": 0.8999999761581421,
                            "epsilon": 9.999999747378752e-06,
                            "center": true,
                            "scale": true,
                            "beta_initializer": {
                                "class_name": "Zeros",
                                "config": {}
                            },
                            "gamma_initializer": {
                                "class_name": "Ones",
                                "config": {}
                            },
                            "moving_mean_initializer": {
                                "class_name": "Zeros",
                                "config": {}
                            },
                            "moving_variance_initializer": {
                                "class_name": "Ones",
                                "config": {}
                            },
                            "beta_regularizer": null,
                            "gamma_regularizer": null,
                            "beta_constraint": null,
                            "gamma_constraint": null
                        },
                        "name": "740",
                        "inbound_nodes": [
                            [
                                [
                                    "739",
                                    0,
                                    0,
                                    {}
                                ]
                            ]
                        ]
                    },
                    {
                        "class_name": "Activation",
                        "config": {
                            "name": "741",
                            "trainable": true,
                            "dtype": "float32",
                            "activation": "relu"
                        },
                        "name": "741",
                        "inbound_nodes": [
                            [
                                [
                                    "740",
                                    0,
                                    0,
                                    {}
                                ]
                            ]
                        ]
                    },
                    {
                        "class_name": "Conv2D",
                        "config": {
                            "name": "742",
                            "trainable": true,
                            "dtype": "float32",
                            "filters": 128,
                            "kernel_size": [
                                1,
                                1
                            ],
                            "strides": [
                                1,
                                1
                            ],
                            "padding": "valid",
                            "data_format": "channels_first",
                            "dilation_rate": [
                                1,
                                1
                            ],
                            "groups": 1,
                            "activation": "linear",
                            "use_bias": false,
                            "kernel_initializer": {
                                "class_name": "Zeros",
                                "config": {}
                            },
                            "bias_initializer": {
                                "class_name": "Zeros",
                                "config": {}
                            },
                            "kernel_regularizer": null,
                            "bias_regularizer": null,
                            "activity_regularizer": null,
                            "kernel_constraint": null,
                            "bias_constraint": null
                        },
                        "name": "742",
                        "inbound_nodes": [
                            [
                                [
                                    "741",
                                    0,
                                    0,
                                    {}
                                ]
                            ]
                        ]
                    },
                    {
                        "class_name": "BatchNormalization",
                        "config": {
                            "name": "743",
                            "trainable": true,
                            "dtype": "float32",
                            "axis": [
                                1
                            ],
                            "momentum": 0.8999999761581421,
                            "epsilon": 9.999999747378752e-06,
                            "center": true,
                            "scale": true,
                            "beta_initializer": {
                                "class_name": "Zeros",
                                "config": {}
                            },
                            "gamma_initializer": {
                                "class_name": "Ones",
                                "config": {}
                            },
                            "moving_mean_initializer": {
                                "class_name": "Zeros",
                                "config": {}
                            },
                            "moving_variance_initializer": {
                                "class_name": "Ones",
                                "config": {}
                            },
                            "beta_regularizer": null,
                            "gamma_regularizer": null,
                            "beta_constraint": null,
                            "gamma_constraint": null
                        },
                        "name": "743",
                        "inbound_nodes": [
                            [
                                [
                                    "742",
                                    0,
                                    0,
                                    {}
                                ]
                            ]
                        ]
                    },
                    {
                        "class_name": "Activation",
                        "config": {
                            "name": "744",
                            "trainable": true,
                            "dtype": "float32",
                            "activation": "relu"
                        },
                        "name": "744",
                        "inbound_nodes": [
                            [
                                [
                                    "743",
                                    0,
                                    0,
                                    {}
                                ]
                            ]
                        ]
                    },
                    {
                        "class_name": "ZeroPadding2D",
                        "config": {
                            "name": "745_pad",
                            "trainable": true,
                            "dtype": "float32",
                            "padding": [
                                [
                                    1,
                                    1
                                ],
                                [
                                    1,
                                    1
                                ]
                            ],
                            "data_format": "channels_first"
                        },
                        "name": "745_pad",
                        "inbound_nodes": [
                            [
                                [
                                    "744",
                                    0,
                                    0,
                                    {}
                                ]
                            ]
                        ]
                    },
                    {
                        "class_name": "Conv2D",
                        "config": {
                            "name": "745",
                            "trainable": true,
                            "dtype": "float32",
                            "filters": 32,
                            "kernel_size": [
                                3,
                                3
                            ],
                            "strides": [
                                1,
                                1
                            ],
                            "padding": "valid",
                            "data_format": "channels_first",
                            "dilation_rate": [
                                1,
                                1
                            ],
                            "groups": 1,
                            "activation": "linear",
                            "use_bias": false,
                            "kernel_initializer": {
                                "class_name": "Zeros",
                                "config": {}
                            },
                            "bias_initializer": {
                                "class_name": "Zeros",
                                "config": {}
                            },
                            "kernel_regularizer": null,
                            "bias_regularizer": null,
                            "activity_regularizer": null,
                            "kernel_constraint": null,
                            "bias_constraint": null
                        },
                        "name": "745",
                        "inbound_nodes": [
                            [
                                [
                                    "745_pad",
                                    0,
                                    0,
                                    {}
                                ]
                            ]
                        ]
                    },
                    {
                        "class_name": "Concatenate",
                        "config": {
                            "name": "746",
                            "trainable": true,
                            "dtype": "float32",
                            "axis": 1
                        },
                        "name": "746",
                        "inbound_nodes": [
                            [
                                [
                                    "731",
                                    0,
                                    0,
                                    {}
                                ],
                                [
                                    "738",
                                    0,
                                    0,
                                    {}
                                ],
                                [
                                    "745",
                                    0,
                                    0,
                                    {}
                                ]
                            ]
                        ]
                    },
                    {
                        "class_name": "BatchNormalization",
                        "config": {
                            "name": "747",
                            "trainable": true,
                            "dtype": "float32",
                            "axis": [
                                1
                            ],
                            "momentum": 0.8999999761581421,
                            "epsilon": 9.999999747378752e-06,
                            "center": true,
                            "scale": true,
                            "beta_initializer": {
                                "class_name": "Zeros",
                                "config": {}
                            },
                            "gamma_initializer": {
                                "class_name": "Ones",
                                "config": {}
                            },
                            "moving_mean_initializer": {
                                "class_name": "Zeros",
                                "config": {}
                            },
                            "moving_variance_initializer": {
                                "class_name": "Ones",
                                "config": {}
                            },
                            "beta_regularizer": null,
                            "gamma_regularizer": null,
                            "beta_constraint": null,
                            "gamma_constraint": null
                        },
                        "name": "747",
                        "inbound_nodes": [
                            [
                                [
                                    "746",
                                    0,
                                    0,
                                    {}
                                ]
                            ]
                        ]
                    },
                    {
                        "class_name": "Activation",
                        "config": {
                            "name": "748",
                            "trainable": true,
                            "dtype": "float32",
                            "activation": "relu"
                        },
                        "name": "748",
                        "inbound_nodes": [
                            [
                                [
                                    "747",
                                    0,
                                    0,
                                    {}
                                ]
                            ]
                        ]
                    },
                    {
                        "class_name": "Conv2D",
                        "config": {
                            "name": "749",
                            "trainable": true,
                            "dtype": "float32",
                            "filters": 128,
                            "kernel_size": [
                                1,
                                1
                            ],
                            "strides": [
                                1,
                                1
                            ],
                            "padding": "valid",
                            "data_format": "channels_first",
                            "dilation_rate": [
                                1,
                                1
                            ],
                            "groups": 1,
                            "activation": "linear",
                            "use_bias": false,
                            "kernel_initializer": {
                                "class_name": "Zeros",
                                "config": {}
                            },
                            "bias_initializer": {
                                "class_name": "Zeros",
                                "config": {}
                            },
                            "kernel_regularizer": null,
                            "bias_regularizer": null,
                            "activity_regularizer": null,
                            "kernel_constraint": null,
                            "bias_constraint": null
                        },
                        "name": "749",
                        "inbound_nodes": [
                            [
                                [
                                    "748",
                                    0,
                                    0,
                                    {}
                                ]
                            ]
                        ]
                    },
                    {
                        "class_name": "BatchNormalization",
                        "config": {
                            "name": "750",
                            "trainable": true,
                            "dtype": "float32",
                            "axis": [
                                1
                            ],
                            "momentum": 0.8999999761581421,
                            "epsilon": 9.999999747378752e-06,
                            "center": true,
                            "scale": true,
                            "beta_initializer": {
                                "class_name": "Zeros",
                                "config": {}
                            },
                            "gamma_initializer": {
                                "class_name": "Ones",
                                "config": {}
                            },
                            "moving_mean_initializer": {
                                "class_name": "Zeros",
                                "config": {}
                            },
                            "moving_variance_initializer": {
                                "class_name": "Ones",
                                "config": {}
                            },
                            "beta_regularizer": null,
                            "gamma_regularizer": null,
                            "beta_constraint": null,
                            "gamma_constraint": null
                        },
                        "name": "750",
                        "inbound_nodes": [
                            [
                                [
                                    "749",
                                    0,
                                    0,
                                    {}
                                ]
                            ]
                        ]
                    },
                    {
                        "class_name": "Activation",
                        "config": {
                            "name": "751",
                            "trainable": true,
                            "dtype": "float32",
                            "activation": "relu"
                        },
                        "name": "751",
                        "inbound_nodes": [
                            [
                                [
                                    "750",
                                    0,
                                    0,
                                    {}
                                ]
                            ]
                        ]
                    },
                    {
                        "class_name": "ZeroPadding2D",
                        "config": {
                            "name": "752_pad",
                            "trainable": true,
                            "dtype": "float32",
                            "padding": [
                                [
                                    1,
                                    1
                                ],
                                [
                                    1,
                                    1
                                ]
                            ],
                            "data_format": "channels_first"
                        },
                        "name": "752_pad",
                        "inbound_nodes": [
                            [
                                [
                                    "751",
                                    0,
                                    0,
                                    {}
                                ]
                            ]
                        ]
                    },
                    {
                        "class_name": "Conv2D",
                        "config": {
                            "name": "752",
                            "trainable": true,
                            "dtype": "float32",
                            "filters": 32,
                            "kernel_size": [
                                3,
                                3
                            ],
                            "strides": [
                                1,
                                1
                            ],
                            "padding": "valid",
                            "data_format": "channels_first",
                            "dilation_rate": [
                                1,
                                1
                            ],
                            "groups": 1,
                            "activation": "linear",
                            "use_bias": false,
                            "kernel_initializer": {
                                "class_name": "Zeros",
                                "config": {}
                            },
                            "bias_initializer": {
                                "class_name": "Zeros",
                                "config": {}
                            },
                            "kernel_regularizer": null,
                            "bias_regularizer": null,
                            "activity_regularizer": null,
                            "kernel_constraint": null,
                            "bias_constraint": null
                        },
                        "name": "752",
                        "inbound_nodes": [
                            [
                                [
                                    "752_pad",
                                    0,
                                    0,
                                    {}
                                ]
                            ]
                        ]
                    },
                    {
                        "class_name": "Concatenate",
                        "config": {
                            "name": "753",
                            "trainable": true,
                            "dtype": "float32",
                            "axis": 1
                        },
                        "name": "753",
                        "inbound_nodes": [
                            [
                                [
                                    "731",
                                    0,
                                    0,
                                    {}
                                ],
                                [
                                    "738",
                                    0,
                                    0,
                                    {}
                                ],
                                [
                                    "745",
                                    0,
                                    0,
                                    {}
                                ],
                                [
                                    "752",
                                    0,
                                    0,
                                    {}
                                ]
                            ]
                        ]
                    },
                    {
                        "class_name": "BatchNormalization",
                        "config": {
                            "name": "754",
                            "trainable": true,
                            "dtype": "float32",
                            "axis": [
                                1
                            ],
                            "momentum": 0.8999999761581421,
                            "epsilon": 9.999999747378752e-06,
                            "center": true,
                            "scale": true,
                            "beta_initializer": {
                                "class_name": "Zeros",
                                "config": {}
                            },
                            "gamma_initializer": {
                                "class_name": "Ones",
                                "config": {}
                            },
                            "moving_mean_initializer": {
                                "class_name": "Zeros",
                                "config": {}
                            },
                            "moving_variance_initializer": {
                                "class_name": "Ones",
                                "config": {}
                            },
                            "beta_regularizer": null,
                            "gamma_regularizer": null,
                            "beta_constraint": null,
                            "gamma_constraint": null
                        },
                        "name": "754",
                        "inbound_nodes": [
                            [
                                [
                                    "753",
                                    0,
                                    0,
                                    {}
                                ]
                            ]
                        ]
                    },
                    {
                        "class_name": "Activation",
                        "config": {
                            "name": "755",
                            "trainable": true,
                            "dtype": "float32",
                            "activation": "relu"
                        },
                        "name": "755",
                        "inbound_nodes": [
                            [
                                [
                                    "754",
                                    0,
                                    0,
                                    {}
                                ]
                            ]
                        ]
                    },
                    {
                        "class_name": "Conv2D",
                        "config": {
                            "name": "756",
                            "trainable": true,
                            "dtype": "float32",
                            "filters": 128,
                            "kernel_size": [
                                1,
                                1
                            ],
                            "strides": [
                                1,
                                1
                            ],
                            "padding": "valid",
                            "data_format": "channels_first",
                            "dilation_rate": [
                                1,
                                1
                            ],
                            "groups": 1,
                            "activation": "linear",
                            "use_bias": false,
                            "kernel_initializer": {
                                "class_name": "Zeros",
                                "config": {}
                            },
                            "bias_initializer": {
                                "class_name": "Zeros",
                                "config": {}
                            },
                            "kernel_regularizer": null,
                            "bias_regularizer": null,
                            "activity_regularizer": null,
                            "kernel_constraint": null,
                            "bias_constraint": null
                        },
                        "name": "756",
                        "inbound_nodes": [
                            [
                                [
                                    "755",
                                    0,
                                    0,
                                    {}
                                ]
                            ]
                        ]
                    },
                    {
                        "class_name": "BatchNormalization",
                        "config": {
                            "name": "757",
                            "trainable": true,
                            "dtype": "float32",
                            "axis": [
                                1
                            ],
                            "momentum": 0.8999999761581421,
                            "epsilon": 9.999999747378752e-06,
                            "center": true,
                            "scale": true,
                            "beta_initializer": {
                                "class_name": "Zeros",
                                "config": {}
                            },
                            "gamma_initializer": {
                                "class_name": "Ones",
                                "config": {}
                            },
                            "moving_mean_initializer": {
                                "class_name": "Zeros",
                                "config": {}
                            },
                            "moving_variance_initializer": {
                                "class_name": "Ones",
                                "config": {}
                            },
                            "beta_regularizer": null,
                            "gamma_regularizer": null,
                            "beta_constraint": null,
                            "gamma_constraint": null
                        },
                        "name": "757",
                        "inbound_nodes": [
                            [
                                [
                                    "756",
                                    0,
                                    0,
                                    {}
                                ]
                            ]
                        ]
                    },
                    {
                        "class_name": "Activation",
                        "config": {
                            "name": "758",
                            "trainable": true,
                            "dtype": "float32",
                            "activation": "relu"
                        },
                        "name": "758",
                        "inbound_nodes": [
                            [
                                [
                                    "757",
                                    0,
                                    0,
                                    {}
                                ]
                            ]
                        ]
                    },
                    {
                        "class_name": "ZeroPadding2D",
                        "config": {
                            "name": "759_pad",
                            "trainable": true,
                            "dtype": "float32",
                            "padding": [
                                [
                                    1,
                                    1
                                ],
                                [
                                    1,
                                    1
                                ]
                            ],
                            "data_format": "channels_first"
                        },
                        "name": "759_pad",
                        "inbound_nodes": [
                            [
                                [
                                    "758",
                                    0,
                                    0,
                                    {}
                                ]
                            ]
                        ]
                    },
                    {
                        "class_name": "Conv2D",
                        "config": {
                            "name": "759",
                            "trainable": true,
                            "dtype": "float32",
                            "filters": 32,
                            "kernel_size": [
                                3,
                                3
                            ],
                            "strides": [
                                1,
                                1
                            ],
                            "padding": "valid",
                            "data_format": "channels_first",
                            "dilation_rate": [
                                1,
                                1
                            ],
                            "groups": 1,
                            "activation": "linear",
                            "use_bias": false,
                            "kernel_initializer": {
                                "class_name": "Zeros",
                                "config": {}
                            },
                            "bias_initializer": {
                                "class_name": "Zeros",
                                "config": {}
                            },
                            "kernel_regularizer": null,
                            "bias_regularizer": null,
                            "activity_regularizer": null,
                            "kernel_constraint": null,
                            "bias_constraint": null
                        },
                        "name": "759",
                        "inbound_nodes": [
                            [
                                [
                                    "759_pad",
                                    0,
                                    0,
                                    {}
                                ]
                            ]
                        ]
                    },
                    {
                        "class_name": "Concatenate",
                        "config": {
                            "name": "760",
                            "trainable": true,
                            "dtype": "float32",
                            "axis": 1
                        },
                        "name": "760",
                        "inbound_nodes": [
                            [
                                [
                                    "731",
                                    0,
                                    0,
                                    {}
                                ],
                                [
                                    "738",
                                    0,
                                    0,
                                    {}
                                ],
                                [
                                    "745",
                                    0,
                                    0,
                                    {}
                                ],
                                [
                                    "752",
                                    0,
                                    0,
                                    {}
                                ],
                                [
                                    "759",
                                    0,
                                    0,
                                    {}
                                ]
                            ]
                        ]
                    },
                    {
                        "class_name": "BatchNormalization",
                        "config": {
                            "name": "761",
                            "trainable": true,
                            "dtype": "float32",
                            "axis": [
                                1
                            ],
                            "momentum": 0.8999999761581421,
                            "epsilon": 9.999999747378752e-06,
                            "center": true,
                            "scale": true,
                            "beta_initializer": {
                                "class_name": "Zeros",
                                "config": {}
                            },
                            "gamma_initializer": {
                                "class_name": "Ones",
                                "config": {}
                            },
                            "moving_mean_initializer": {
                                "class_name": "Zeros",
                                "config": {}
                            },
                            "moving_variance_initializer": {
                                "class_name": "Ones",
                                "config": {}
                            },
                            "beta_regularizer": null,
                            "gamma_regularizer": null,
                            "beta_constraint": null,
                            "gamma_constraint": null
                        },
                        "name": "761",
                        "inbound_nodes": [
                            [
                                [
                                    "760",
                                    0,
                                    0,
                                    {}
                                ]
                            ]
                        ]
                    },
                    {
                        "class_name": "Activation",
                        "config": {
                            "name": "762",
                            "trainable": true,
                            "dtype": "float32",
                            "activation": "relu"
                        },
                        "name": "762",
                        "inbound_nodes": [
                            [
                                [
                                    "761",
                                    0,
                                    0,
                                    {}
                                ]
                            ]
                        ]
                    },
                    {
                        "class_name": "Conv2D",
                        "config": {
                            "name": "763",
                            "trainable": true,
                            "dtype": "float32",
                            "filters": 128,
                            "kernel_size": [
                                1,
                                1
                            ],
                            "strides": [
                                1,
                                1
                            ],
                            "padding": "valid",
                            "data_format": "channels_first",
                            "dilation_rate": [
                                1,
                                1
                            ],
                            "groups": 1,
                            "activation": "linear",
                            "use_bias": false,
                            "kernel_initializer": {
                                "class_name": "Zeros",
                                "config": {}
                            },
                            "bias_initializer": {
                                "class_name": "Zeros",
                                "config": {}
                            },
                            "kernel_regularizer": null,
                            "bias_regularizer": null,
                            "activity_regularizer": null,
                            "kernel_constraint": null,
                            "bias_constraint": null
                        },
                        "name": "763",
                        "inbound_nodes": [
                            [
                                [
                                    "762",
                                    0,
                                    0,
                                    {}
                                ]
                            ]
                        ]
                    },
                    {
                        "class_name": "BatchNormalization",
                        "config": {
                            "name": "764",
                            "trainable": true,
                            "dtype": "float32",
                            "axis": [
                                1
                            ],
                            "momentum": 0.8999999761581421,
                            "epsilon": 9.999999747378752e-06,
                            "center": true,
                            "scale": true,
                            "beta_initializer": {
                                "class_name": "Zeros",
                                "config": {}
                            },
                            "gamma_initializer": {
                                "class_name": "Ones",
                                "config": {}
                            },
                            "moving_mean_initializer": {
                                "class_name": "Zeros",
                                "config": {}
                            },
                            "moving_variance_initializer": {
                                "class_name": "Ones",
                                "config": {}
                            },
                            "beta_regularizer": null,
                            "gamma_regularizer": null,
                            "beta_constraint": null,
                            "gamma_constraint": null
                        },
                        "name": "764",
                        "inbound_nodes": [
                            [
                                [
                                    "763",
                                    0,
                                    0,
                                    {}
                                ]
                            ]
                        ]
                    },
                    {
                        "class_name": "Activation",
                        "config": {
                            "name": "765",
                            "trainable": true,
                            "dtype": "float32",
                            "activation": "relu"
                        },
                        "name": "765",
                        "inbound_nodes": [
                            [
                                [
                                    "764",
                                    0,
                                    0,
                                    {}
                                ]
                            ]
                        ]
                    },
                    {
                        "class_name": "ZeroPadding2D",
                        "config": {
                            "name": "766_pad",
                            "trainable": true,
                            "dtype": "float32",
                            "padding": [
                                [
                                    1,
                                    1
                                ],
                                [
                                    1,
                                    1
                                ]
                            ],
                            "data_format": "channels_first"
                        },
                        "name": "766_pad",
                        "inbound_nodes": [
                            [
                                [
                                    "765",
                                    0,
                                    0,
                                    {}
                                ]
                            ]
                        ]
                    },
                    {
                        "class_name": "Conv2D",
                        "config": {
                            "name": "766",
                            "trainable": true,
                            "dtype": "float32",
                            "filters": 32,
                            "kernel_size": [
                                3,
                                3
                            ],
                            "strides": [
                                1,
                                1
                            ],
                            "padding": "valid",
                            "data_format": "channels_first",
                            "dilation_rate": [
                                1,
                                1
                            ],
                            "groups": 1,
                            "activation": "linear",
                            "use_bias": false,
                            "kernel_initializer": {
                                "class_name": "Zeros",
                                "config": {}
                            },
                            "bias_initializer": {
                                "class_name": "Zeros",
                                "config": {}
                            },
                            "kernel_regularizer": null,
                            "bias_regularizer": null,
                            "activity_regularizer": null,
                            "kernel_constraint": null,
                            "bias_constraint": null
                        },
                        "name": "766",
                        "inbound_nodes": [
                            [
                                [
                                    "766_pad",
                                    0,
                                    0,
                                    {}
                                ]
                            ]
                        ]
                    },
                    {
                        "class_name": "Concatenate",
                        "config": {
                            "name": "767",
                            "trainable": true,
                            "dtype": "float32",
                            "axis": 1
                        },
                        "name": "767",
                        "inbound_nodes": [
                            [
                                [
                                    "731",
                                    0,
                                    0,
                                    {}
                                ],
                                [
                                    "738",
                                    0,
                                    0,
                                    {}
                                ],
                                [
                                    "745",
                                    0,
                                    0,
                                    {}
                                ],
                                [
                                    "752",
                                    0,
                                    0,
                                    {}
                                ],
                                [
                                    "759",
                                    0,
                                    0,
                                    {}
                                ],
                                [
                                    "766",
                                    0,
                                    0,
                                    {}
                                ]
                            ]
                        ]
                    },
                    {
                        "class_name": "BatchNormalization",
                        "config": {
                            "name": "768",
                            "trainable": true,
                            "dtype": "float32",
                            "axis": [
                                1
                            ],
                            "momentum": 0.8999999761581421,
                            "epsilon": 9.999999747378752e-06,
                            "center": true,
                            "scale": true,
                            "beta_initializer": {
                                "class_name": "Zeros",
                                "config": {}
                            },
                            "gamma_initializer": {
                                "class_name": "Ones",
                                "config": {}
                            },
                            "moving_mean_initializer": {
                                "class_name": "Zeros",
                                "config": {}
                            },
                            "moving_variance_initializer": {
                                "class_name": "Ones",
                                "config": {}
                            },
                            "beta_regularizer": null,
                            "gamma_regularizer": null,
                            "beta_constraint": null,
                            "gamma_constraint": null
                        },
                        "name": "768",
                        "inbound_nodes": [
                            [
                                [
                                    "767",
                                    0,
                                    0,
                                    {}
                                ]
                            ]
                        ]
                    },
                    {
                        "class_name": "Activation",
                        "config": {
                            "name": "769",
                            "trainable": true,
                            "dtype": "float32",
                            "activation": "relu"
                        },
                        "name": "769",
                        "inbound_nodes": [
                            [
                                [
                                    "768",
                                    0,
                                    0,
                                    {}
                                ]
                            ]
                        ]
                    },
                    {
                        "class_name": "Conv2D",
                        "config": {
                            "name": "770",
                            "trainable": true,
                            "dtype": "float32",
                            "filters": 128,
                            "kernel_size": [
                                1,
                                1
                            ],
                            "strides": [
                                1,
                                1
                            ],
                            "padding": "valid",
                            "data_format": "channels_first",
                            "dilation_rate": [
                                1,
                                1
                            ],
                            "groups": 1,
                            "activation": "linear",
                            "use_bias": false,
                            "kernel_initializer": {
                                "class_name": "Zeros",
                                "config": {}
                            },
                            "bias_initializer": {
                                "class_name": "Zeros",
                                "config": {}
                            },
                            "kernel_regularizer": null,
                            "bias_regularizer": null,
                            "activity_regularizer": null,
                            "kernel_constraint": null,
                            "bias_constraint": null
                        },
                        "name": "770",
                        "inbound_nodes": [
                            [
                                [
                                    "769",
                                    0,
                                    0,
                                    {}
                                ]
                            ]
                        ]
                    },
                    {
                        "class_name": "BatchNormalization",
                        "config": {
                            "name": "771",
                            "trainable": true,
                            "dtype": "float32",
                            "axis": [
                                1
                            ],
                            "momentum": 0.8999999761581421,
                            "epsilon": 9.999999747378752e-06,
                            "center": true,
                            "scale": true,
                            "beta_initializer": {
                                "class_name": "Zeros",
                                "config": {}
                            },
                            "gamma_initializer": {
                                "class_name": "Ones",
                                "config": {}
                            },
                            "moving_mean_initializer": {
                                "class_name": "Zeros",
                                "config": {}
                            },
                            "moving_variance_initializer": {
                                "class_name": "Ones",
                                "config": {}
                            },
                            "beta_regularizer": null,
                            "gamma_regularizer": null,
                            "beta_constraint": null,
                            "gamma_constraint": null
                        },
                        "name": "771",
                        "inbound_nodes": [
                            [
                                [
                                    "770",
                                    0,
                                    0,
                                    {}
                                ]
                            ]
                        ]
                    },
                    {
                        "class_name": "Activation",
                        "config": {
                            "name": "772",
                            "trainable": true,
                            "dtype": "float32",
                            "activation": "relu"
                        },
                        "name": "772",
                        "inbound_nodes": [
                            [
                                [
                                    "771",
                                    0,
                                    0,
                                    {}
                                ]
                            ]
                        ]
                    },
                    {
                        "class_name": "ZeroPadding2D",
                        "config": {
                            "name": "773_pad",
                            "trainable": true,
                            "dtype": "float32",
                            "padding": [
                                [
                                    1,
                                    1
                                ],
                                [
                                    1,
                                    1
                                ]
                            ],
                            "data_format": "channels_first"
                        },
                        "name": "773_pad",
                        "inbound_nodes": [
                            [
                                [
                                    "772",
                                    0,
                                    0,
                                    {}
                                ]
                            ]
                        ]
                    },
                    {
                        "class_name": "Conv2D",
                        "config": {
                            "name": "773",
                            "trainable": true,
                            "dtype": "float32",
                            "filters": 32,
                            "kernel_size": [
                                3,
                                3
                            ],
                            "strides": [
                                1,
                                1
                            ],
                            "padding": "valid",
                            "data_format": "channels_first",
                            "dilation_rate": [
                                1,
                                1
                            ],
                            "groups": 1,
                            "activation": "linear",
                            "use_bias": false,
                            "kernel_initializer": {
                                "class_name": "Zeros",
                                "config": {}
                            },
                            "bias_initializer": {
                                "class_name": "Zeros",
                                "config": {}
                            },
                            "kernel_regularizer": null,
                            "bias_regularizer": null,
                            "activity_regularizer": null,
                            "kernel_constraint": null,
                            "bias_constraint": null
                        },
                        "name": "773",
                        "inbound_nodes": [
                            [
                                [
                                    "773_pad",
                                    0,
                                    0,
                                    {}
                                ]
                            ]
                        ]
                    },
                    {
                        "class_name": "Concatenate",
                        "config": {
                            "name": "774",
                            "trainable": true,
                            "dtype": "float32",
                            "axis": 1
                        },
                        "name": "774",
                        "inbound_nodes": [
                            [
                                [
                                    "731",
                                    0,
                                    0,
                                    {}
                                ],
                                [
                                    "738",
                                    0,
                                    0,
                                    {}
                                ],
                                [
                                    "745",
                                    0,
                                    0,
                                    {}
                                ],
                                [
                                    "752",
                                    0,
                                    0,
                                    {}
                                ],
                                [
                                    "759",
                                    0,
                                    0,
                                    {}
                                ],
                                [
                                    "766",
                                    0,
                                    0,
                                    {}
                                ],
                                [
                                    "773",
                                    0,
                                    0,
                                    {}
                                ]
                            ]
                        ]
                    },
                    {
                        "class_name": "BatchNormalization",
                        "config": {
                            "name": "775",
                            "trainable": true,
                            "dtype": "float32",
                            "axis": [
                                1
                            ],
                            "momentum": 0.8999999761581421,
                            "epsilon": 9.999999747378752e-06,
                            "center": true,
                            "scale": true,
                            "beta_initializer": {
                                "class_name": "Zeros",
                                "config": {}
                            },
                            "gamma_initializer": {
                                "class_name": "Ones",
                                "config": {}
                            },
                            "moving_mean_initializer": {
                                "class_name": "Zeros",
                                "config": {}
                            },
                            "moving_variance_initializer": {
                                "class_name": "Ones",
                                "config": {}
                            },
                            "beta_regularizer": null,
                            "gamma_regularizer": null,
                            "beta_constraint": null,
                            "gamma_constraint": null
                        },
                        "name": "775",
                        "inbound_nodes": [
                            [
                                [
                                    "774",
                                    0,
                                    0,
                                    {}
                                ]
                            ]
                        ]
                    },
                    {
                        "class_name": "Activation",
                        "config": {
                            "name": "776",
                            "trainable": true,
                            "dtype": "float32",
                            "activation": "relu"
                        },
                        "name": "776",
                        "inbound_nodes": [
                            [
                                [
                                    "775",
                                    0,
                                    0,
                                    {}
                                ]
                            ]
                        ]
                    },
                    {
                        "class_name": "Conv2D",
                        "config": {
                            "name": "777",
                            "trainable": true,
                            "dtype": "float32",
                            "filters": 128,
                            "kernel_size": [
                                1,
                                1
                            ],
                            "strides": [
                                1,
                                1
                            ],
                            "padding": "valid",
                            "data_format": "channels_first",
                            "dilation_rate": [
                                1,
                                1
                            ],
                            "groups": 1,
                            "activation": "linear",
                            "use_bias": false,
                            "kernel_initializer": {
                                "class_name": "Zeros",
                                "config": {}
                            },
                            "bias_initializer": {
                                "class_name": "Zeros",
                                "config": {}
                            },
                            "kernel_regularizer": null,
                            "bias_regularizer": null,
                            "activity_regularizer": null,
                            "kernel_constraint": null,
                            "bias_constraint": null
                        },
                        "name": "777",
                        "inbound_nodes": [
                            [
                                [
                                    "776",
                                    0,
                                    0,
                                    {}
                                ]
                            ]
                        ]
                    },
                    {
                        "class_name": "ZeroPadding2D",
                        "config": {
                            "name": "778",
                            "trainable": true,
                            "dtype": "float32",
                            "padding": [
                                [
                                    0,
                                    0
                                ],
                                [
                                    0,
                                    0
                                ]
                            ],
                            "data_format": "channels_first"
                        },
                        "name": "778",
                        "inbound_nodes": [
                            [
                                [
                                    "777",
                                    0,
                                    0,
                                    {}
                                ]
                            ]
                        ]
                    },
                    {
                        "class_name": "ZeroPadding2D",
                        "config": {
                            "name": "779_pad",
                            "trainable": true,
                            "dtype": "float32",
                            "padding": [
                                [
                                    0,
                                    0
                                ],
                                [
                                    0,
                                    0
                                ]
                            ],
                            "data_format": "channels_first"
                        },
                        "name": "779_pad",
                        "inbound_nodes": [
                            [
                                [
                                    "778",
                                    0,
                                    0,
                                    {}
                                ]
                            ]
                        ]
                    },
                    {
                        "class_name": "AveragePooling2D",
                        "config": {
                            "name": "779",
                            "trainable": true,
                            "dtype": "float32",
                            "pool_size": [
                                2,
                                2
                            ],
                            "padding": "valid",
                            "strides": [
                                2,
                                2
                            ],
                            "data_format": "channels_first"
                        },
                        "name": "779",
                        "inbound_nodes": [
                            [
                                [
                                    "779_pad",
                                    0,
                                    0,
                                    {}
                                ]
                            ]
                        ]
                    },
                    {
                        "class_name": "BatchNormalization",
                        "config": {
                            "name": "781",
                            "trainable": true,
                            "dtype": "float32",
                            "axis": [
                                1
                            ],
                            "momentum": 0.8999999761581421,
                            "epsilon": 9.999999747378752e-06,
                            "center": true,
                            "scale": true,
                            "beta_initializer": {
                                "class_name": "Zeros",
                                "config": {}
                            },
                            "gamma_initializer": {
                                "class_name": "Ones",
                                "config": {}
                            },
                            "moving_mean_initializer": {
                                "class_name": "Zeros",
                                "config": {}
                            },
                            "moving_variance_initializer": {
                                "class_name": "Ones",
                                "config": {}
                            },
                            "beta_regularizer": null,
                            "gamma_regularizer": null,
                            "beta_constraint": null,
                            "gamma_constraint": null
                        },
                        "name": "781",
                        "inbound_nodes": [
                            [
                                [
                                    "779",
                                    0,
                                    0,
                                    {}
                                ]
                            ]
                        ]
                    },
                    {
                        "class_name": "Activation",
                        "config": {
                            "name": "782",
                            "trainable": true,
                            "dtype": "float32",
                            "activation": "relu"
                        },
                        "name": "782",
                        "inbound_nodes": [
                            [
                                [
                                    "781",
                                    0,
                                    0,
                                    {}
                                ]
                            ]
                        ]
                    },
                    {
                        "class_name": "Conv2D",
                        "config": {
                            "name": "783",
                            "trainable": true,
                            "dtype": "float32",
                            "filters": 128,
                            "kernel_size": [
                                1,
                                1
                            ],
                            "strides": [
                                1,
                                1
                            ],
                            "padding": "valid",
                            "data_format": "channels_first",
                            "dilation_rate": [
                                1,
                                1
                            ],
                            "groups": 1,
                            "activation": "linear",
                            "use_bias": false,
                            "kernel_initializer": {
                                "class_name": "Zeros",
                                "config": {}
                            },
                            "bias_initializer": {
                                "class_name": "Zeros",
                                "config": {}
                            },
                            "kernel_regularizer": null,
                            "bias_regularizer": null,
                            "activity_regularizer": null,
                            "kernel_constraint": null,
                            "bias_constraint": null
                        },
                        "name": "783",
                        "inbound_nodes": [
                            [
                                [
                                    "782",
                                    0,
                                    0,
                                    {}
                                ]
                            ]
                        ]
                    },
                    {
                        "class_name": "BatchNormalization",
                        "config": {
                            "name": "784",
                            "trainable": true,
                            "dtype": "float32",
                            "axis": [
                                1
                            ],
                            "momentum": 0.8999999761581421,
                            "epsilon": 9.999999747378752e-06,
                            "center": true,
                            "scale": true,
                            "beta_initializer": {
                                "class_name": "Zeros",
                                "config": {}
                            },
                            "gamma_initializer": {
                                "class_name": "Ones",
                                "config": {}
                            },
                            "moving_mean_initializer": {
                                "class_name": "Zeros",
                                "config": {}
                            },
                            "moving_variance_initializer": {
                                "class_name": "Ones",
                                "config": {}
                            },
                            "beta_regularizer": null,
                            "gamma_regularizer": null,
                            "beta_constraint": null,
                            "gamma_constraint": null
                        },
                        "name": "784",
                        "inbound_nodes": [
                            [
                                [
                                    "783",
                                    0,
                                    0,
                                    {}
                                ]
                            ]
                        ]
                    },
                    {
                        "class_name": "Activation",
                        "config": {
                            "name": "785",
                            "trainable": true,
                            "dtype": "float32",
                            "activation": "relu"
                        },
                        "name": "785",
                        "inbound_nodes": [
                            [
                                [
                                    "784",
                                    0,
                                    0,
                                    {}
                                ]
                            ]
                        ]
                    },
                    {
                        "class_name": "ZeroPadding2D",
                        "config": {
                            "name": "786_pad",
                            "trainable": true,
                            "dtype": "float32",
                            "padding": [
                                [
                                    1,
                                    1
                                ],
                                [
                                    1,
                                    1
                                ]
                            ],
                            "data_format": "channels_first"
                        },
                        "name": "786_pad",
                        "inbound_nodes": [
                            [
                                [
                                    "785",
                                    0,
                                    0,
                                    {}
                                ]
                            ]
                        ]
                    },
                    {
                        "class_name": "Conv2D",
                        "config": {
                            "name": "786",
                            "trainable": true,
                            "dtype": "float32",
                            "filters": 32,
                            "kernel_size": [
                                3,
                                3
                            ],
                            "strides": [
                                1,
                                1
                            ],
                            "padding": "valid",
                            "data_format": "channels_first",
                            "dilation_rate": [
                                1,
                                1
                            ],
                            "groups": 1,
                            "activation": "linear",
                            "use_bias": false,
                            "kernel_initializer": {
                                "class_name": "Zeros",
                                "config": {}
                            },
                            "bias_initializer": {
                                "class_name": "Zeros",
                                "config": {}
                            },
                            "kernel_regularizer": null,
                            "bias_regularizer": null,
                            "activity_regularizer": null,
                            "kernel_constraint": null,
                            "bias_constraint": null
                        },
                        "name": "786",
                        "inbound_nodes": [
                            [
                                [
                                    "786_pad",
                                    0,
                                    0,
                                    {}
                                ]
                            ]
                        ]
                    },
                    {
                        "class_name": "Concatenate",
                        "config": {
                            "name": "787",
                            "trainable": true,
                            "dtype": "float32",
                            "axis": 1
                        },
                        "name": "787",
                        "inbound_nodes": [
                            [
                                [
                                    "779",
                                    0,
                                    0,
                                    {}
                                ],
                                [
                                    "786",
                                    0,
                                    0,
                                    {}
                                ]
                            ]
                        ]
                    },
                    {
                        "class_name": "BatchNormalization",
                        "config": {
                            "name": "788",
                            "trainable": true,
                            "dtype": "float32",
                            "axis": [
                                1
                            ],
                            "momentum": 0.8999999761581421,
                            "epsilon": 9.999999747378752e-06,
                            "center": true,
                            "scale": true,
                            "beta_initializer": {
                                "class_name": "Zeros",
                                "config": {}
                            },
                            "gamma_initializer": {
                                "class_name": "Ones",
                                "config": {}
                            },
                            "moving_mean_initializer": {
                                "class_name": "Zeros",
                                "config": {}
                            },
                            "moving_variance_initializer": {
                                "class_name": "Ones",
                                "config": {}
                            },
                            "beta_regularizer": null,
                            "gamma_regularizer": null,
                            "beta_constraint": null,
                            "gamma_constraint": null
                        },
                        "name": "788",
                        "inbound_nodes": [
                            [
                                [
                                    "787",
                                    0,
                                    0,
                                    {}
                                ]
                            ]
                        ]
                    },
                    {
                        "class_name": "Activation",
                        "config": {
                            "name": "789",
                            "trainable": true,
                            "dtype": "float32",
                            "activation": "relu"
                        },
                        "name": "789",
                        "inbound_nodes": [
                            [
                                [
                                    "788",
                                    0,
                                    0,
                                    {}
                                ]
                            ]
                        ]
                    },
                    {
                        "class_name": "Conv2D",
                        "config": {
                            "name": "790",
                            "trainable": true,
                            "dtype": "float32",
                            "filters": 128,
                            "kernel_size": [
                                1,
                                1
                            ],
                            "strides": [
                                1,
                                1
                            ],
                            "padding": "valid",
                            "data_format": "channels_first",
                            "dilation_rate": [
                                1,
                                1
                            ],
                            "groups": 1,
                            "activation": "linear",
                            "use_bias": false,
                            "kernel_initializer": {
                                "class_name": "Zeros",
                                "config": {}
                            },
                            "bias_initializer": {
                                "class_name": "Zeros",
                                "config": {}
                            },
                            "kernel_regularizer": null,
                            "bias_regularizer": null,
                            "activity_regularizer": null,
                            "kernel_constraint": null,
                            "bias_constraint": null
                        },
                        "name": "790",
                        "inbound_nodes": [
                            [
                                [
                                    "789",
                                    0,
                                    0,
                                    {}
                                ]
                            ]
                        ]
                    },
                    {
                        "class_name": "BatchNormalization",
                        "config": {
                            "name": "791",
                            "trainable": true,
                            "dtype": "float32",
                            "axis": [
                                1
                            ],
                            "momentum": 0.8999999761581421,
                            "epsilon": 9.999999747378752e-06,
                            "center": true,
                            "scale": true,
                            "beta_initializer": {
                                "class_name": "Zeros",
                                "config": {}
                            },
                            "gamma_initializer": {
                                "class_name": "Ones",
                                "config": {}
                            },
                            "moving_mean_initializer": {
                                "class_name": "Zeros",
                                "config": {}
                            },
                            "moving_variance_initializer": {
                                "class_name": "Ones",
                                "config": {}
                            },
                            "beta_regularizer": null,
                            "gamma_regularizer": null,
                            "beta_constraint": null,
                            "gamma_constraint": null
                        },
                        "name": "791",
                        "inbound_nodes": [
                            [
                                [
                                    "790",
                                    0,
                                    0,
                                    {}
                                ]
                            ]
                        ]
                    },
                    {
                        "class_name": "Activation",
                        "config": {
                            "name": "792",
                            "trainable": true,
                            "dtype": "float32",
                            "activation": "relu"
                        },
                        "name": "792",
                        "inbound_nodes": [
                            [
                                [
                                    "791",
                                    0,
                                    0,
                                    {}
                                ]
                            ]
                        ]
                    },
                    {
                        "class_name": "ZeroPadding2D",
                        "config": {
                            "name": "793_pad",
                            "trainable": true,
                            "dtype": "float32",
                            "padding": [
                                [
                                    1,
                                    1
                                ],
                                [
                                    1,
                                    1
                                ]
                            ],
                            "data_format": "channels_first"
                        },
                        "name": "793_pad",
                        "inbound_nodes": [
                            [
                                [
                                    "792",
                                    0,
                                    0,
                                    {}
                                ]
                            ]
                        ]
                    },
                    {
                        "class_name": "Conv2D",
                        "config": {
                            "name": "793",
                            "trainable": true,
                            "dtype": "float32",
                            "filters": 32,
                            "kernel_size": [
                                3,
                                3
                            ],
                            "strides": [
                                1,
                                1
                            ],
                            "padding": "valid",
                            "data_format": "channels_first",
                            "dilation_rate": [
                                1,
                                1
                            ],
                            "groups": 1,
                            "activation": "linear",
                            "use_bias": false,
                            "kernel_initializer": {
                                "class_name": "Zeros",
                                "config": {}
                            },
                            "bias_initializer": {
                                "class_name": "Zeros",
                                "config": {}
                            },
                            "kernel_regularizer": null,
                            "bias_regularizer": null,
                            "activity_regularizer": null,
                            "kernel_constraint": null,
                            "bias_constraint": null
                        },
                        "name": "793",
                        "inbound_nodes": [
                            [
                                [
                                    "793_pad",
                                    0,
                                    0,
                                    {}
                                ]
                            ]
                        ]
                    },
                    {
                        "class_name": "Concatenate",
                        "config": {
                            "name": "794",
                            "trainable": true,
                            "dtype": "float32",
                            "axis": 1
                        },
                        "name": "794",
                        "inbound_nodes": [
                            [
                                [
                                    "779",
                                    0,
                                    0,
                                    {}
                                ],
                                [
                                    "786",
                                    0,
                                    0,
                                    {}
                                ],
                                [
                                    "793",
                                    0,
                                    0,
                                    {}
                                ]
                            ]
                        ]
                    },
                    {
                        "class_name": "BatchNormalization",
                        "config": {
                            "name": "795",
                            "trainable": true,
                            "dtype": "float32",
                            "axis": [
                                1
                            ],
                            "momentum": 0.8999999761581421,
                            "epsilon": 9.999999747378752e-06,
                            "center": true,
                            "scale": true,
                            "beta_initializer": {
                                "class_name": "Zeros",
                                "config": {}
                            },
                            "gamma_initializer": {
                                "class_name": "Ones",
                                "config": {}
                            },
                            "moving_mean_initializer": {
                                "class_name": "Zeros",
                                "config": {}
                            },
                            "moving_variance_initializer": {
                                "class_name": "Ones",
                                "config": {}
                            },
                            "beta_regularizer": null,
                            "gamma_regularizer": null,
                            "beta_constraint": null,
                            "gamma_constraint": null
                        },
                        "name": "795",
                        "inbound_nodes": [
                            [
                                [
                                    "794",
                                    0,
                                    0,
                                    {}
                                ]
                            ]
                        ]
                    },
                    {
                        "class_name": "Activation",
                        "config": {
                            "name": "796",
                            "trainable": true,
                            "dtype": "float32",
                            "activation": "relu"
                        },
                        "name": "796",
                        "inbound_nodes": [
                            [
                                [
                                    "795",
                                    0,
                                    0,
                                    {}
                                ]
                            ]
                        ]
                    },
                    {
                        "class_name": "Conv2D",
                        "config": {
                            "name": "797",
                            "trainable": true,
                            "dtype": "float32",
                            "filters": 128,
                            "kernel_size": [
                                1,
                                1
                            ],
                            "strides": [
                                1,
                                1
                            ],
                            "padding": "valid",
                            "data_format": "channels_first",
                            "dilation_rate": [
                                1,
                                1
                            ],
                            "groups": 1,
                            "activation": "linear",
                            "use_bias": false,
                            "kernel_initializer": {
                                "class_name": "Zeros",
                                "config": {}
                            },
                            "bias_initializer": {
                                "class_name": "Zeros",
                                "config": {}
                            },
                            "kernel_regularizer": null,
                            "bias_regularizer": null,
                            "activity_regularizer": null,
                            "kernel_constraint": null,
                            "bias_constraint": null
                        },
                        "name": "797",
                        "inbound_nodes": [
                            [
                                [
                                    "796",
                                    0,
                                    0,
                                    {}
                                ]
                            ]
                        ]
                    },
                    {
                        "class_name": "BatchNormalization",
                        "config": {
                            "name": "798",
                            "trainable": true,
                            "dtype": "float32",
                            "axis": [
                                1
                            ],
                            "momentum": 0.8999999761581421,
                            "epsilon": 9.999999747378752e-06,
                            "center": true,
                            "scale": true,
                            "beta_initializer": {
                                "class_name": "Zeros",
                                "config": {}
                            },
                            "gamma_initializer": {
                                "class_name": "Ones",
                                "config": {}
                            },
                            "moving_mean_initializer": {
                                "class_name": "Zeros",
                                "config": {}
                            },
                            "moving_variance_initializer": {
                                "class_name": "Ones",
                                "config": {}
                            },
                            "beta_regularizer": null,
                            "gamma_regularizer": null,
                            "beta_constraint": null,
                            "gamma_constraint": null
                        },
                        "name": "798",
                        "inbound_nodes": [
                            [
                                [
                                    "797",
                                    0,
                                    0,
                                    {}
                                ]
                            ]
                        ]
                    },
                    {
                        "class_name": "Activation",
                        "config": {
                            "name": "799",
                            "trainable": true,
                            "dtype": "float32",
                            "activation": "relu"
                        },
                        "name": "799",
                        "inbound_nodes": [
                            [
                                [
                                    "798",
                                    0,
                                    0,
                                    {}
                                ]
                            ]
                        ]
                    },
                    {
                        "class_name": "ZeroPadding2D",
                        "config": {
                            "name": "800_pad",
                            "trainable": true,
                            "dtype": "float32",
                            "padding": [
                                [
                                    1,
                                    1
                                ],
                                [
                                    1,
                                    1
                                ]
                            ],
                            "data_format": "channels_first"
                        },
                        "name": "800_pad",
                        "inbound_nodes": [
                            [
                                [
                                    "799",
                                    0,
                                    0,
                                    {}
                                ]
                            ]
                        ]
                    },
                    {
                        "class_name": "Conv2D",
                        "config": {
                            "name": "800",
                            "trainable": true,
                            "dtype": "float32",
                            "filters": 32,
                            "kernel_size": [
                                3,
                                3
                            ],
                            "strides": [
                                1,
                                1
                            ],
                            "padding": "valid",
                            "data_format": "channels_first",
                            "dilation_rate": [
                                1,
                                1
                            ],
                            "groups": 1,
                            "activation": "linear",
                            "use_bias": false,
                            "kernel_initializer": {
                                "class_name": "Zeros",
                                "config": {}
                            },
                            "bias_initializer": {
                                "class_name": "Zeros",
                                "config": {}
                            },
                            "kernel_regularizer": null,
                            "bias_regularizer": null,
                            "activity_regularizer": null,
                            "kernel_constraint": null,
                            "bias_constraint": null
                        },
                        "name": "800",
                        "inbound_nodes": [
                            [
                                [
                                    "800_pad",
                                    0,
                                    0,
                                    {}
                                ]
                            ]
                        ]
                    },
                    {
                        "class_name": "Concatenate",
                        "config": {
                            "name": "801",
                            "trainable": true,
                            "dtype": "float32",
                            "axis": 1
                        },
                        "name": "801",
                        "inbound_nodes": [
                            [
                                [
                                    "779",
                                    0,
                                    0,
                                    {}
                                ],
                                [
                                    "786",
                                    0,
                                    0,
                                    {}
                                ],
                                [
                                    "793",
                                    0,
                                    0,
                                    {}
                                ],
                                [
                                    "800",
                                    0,
                                    0,
                                    {}
                                ]
                            ]
                        ]
                    },
                    {
                        "class_name": "BatchNormalization",
                        "config": {
                            "name": "802",
                            "trainable": true,
                            "dtype": "float32",
                            "axis": [
                                1
                            ],
                            "momentum": 0.8999999761581421,
                            "epsilon": 9.999999747378752e-06,
                            "center": true,
                            "scale": true,
                            "beta_initializer": {
                                "class_name": "Zeros",
                                "config": {}
                            },
                            "gamma_initializer": {
                                "class_name": "Ones",
                                "config": {}
                            },
                            "moving_mean_initializer": {
                                "class_name": "Zeros",
                                "config": {}
                            },
                            "moving_variance_initializer": {
                                "class_name": "Ones",
                                "config": {}
                            },
                            "beta_regularizer": null,
                            "gamma_regularizer": null,
                            "beta_constraint": null,
                            "gamma_constraint": null
                        },
                        "name": "802",
                        "inbound_nodes": [
                            [
                                [
                                    "801",
                                    0,
                                    0,
                                    {}
                                ]
                            ]
                        ]
                    },
                    {
                        "class_name": "Activation",
                        "config": {
                            "name": "803",
                            "trainable": true,
                            "dtype": "float32",
                            "activation": "relu"
                        },
                        "name": "803",
                        "inbound_nodes": [
                            [
                                [
                                    "802",
                                    0,
                                    0,
                                    {}
                                ]
                            ]
                        ]
                    },
                    {
                        "class_name": "Conv2D",
                        "config": {
                            "name": "804",
                            "trainable": true,
                            "dtype": "float32",
                            "filters": 128,
                            "kernel_size": [
                                1,
                                1
                            ],
                            "strides": [
                                1,
                                1
                            ],
                            "padding": "valid",
                            "data_format": "channels_first",
                            "dilation_rate": [
                                1,
                                1
                            ],
                            "groups": 1,
                            "activation": "linear",
                            "use_bias": false,
                            "kernel_initializer": {
                                "class_name": "Zeros",
                                "config": {}
                            },
                            "bias_initializer": {
                                "class_name": "Zeros",
                                "config": {}
                            },
                            "kernel_regularizer": null,
                            "bias_regularizer": null,
                            "activity_regularizer": null,
                            "kernel_constraint": null,
                            "bias_constraint": null
                        },
                        "name": "804",
                        "inbound_nodes": [
                            [
                                [
                                    "803",
                                    0,
                                    0,
                                    {}
                                ]
                            ]
                        ]
                    },
                    {
                        "class_name": "BatchNormalization",
                        "config": {
                            "name": "805",
                            "trainable": true,
                            "dtype": "float32",
                            "axis": [
                                1
                            ],
                            "momentum": 0.8999999761581421,
                            "epsilon": 9.999999747378752e-06,
                            "center": true,
                            "scale": true,
                            "beta_initializer": {
                                "class_name": "Zeros",
                                "config": {}
                            },
                            "gamma_initializer": {
                                "class_name": "Ones",
                                "config": {}
                            },
                            "moving_mean_initializer": {
                                "class_name": "Zeros",
                                "config": {}
                            },
                            "moving_variance_initializer": {
                                "class_name": "Ones",
                                "config": {}
                            },
                            "beta_regularizer": null,
                            "gamma_regularizer": null,
                            "beta_constraint": null,
                            "gamma_constraint": null
                        },
                        "name": "805",
                        "inbound_nodes": [
                            [
                                [
                                    "804",
                                    0,
                                    0,
                                    {}
                                ]
                            ]
                        ]
                    },
                    {
                        "class_name": "Activation",
                        "config": {
                            "name": "806",
                            "trainable": true,
                            "dtype": "float32",
                            "activation": "relu"
                        },
                        "name": "806",
                        "inbound_nodes": [
                            [
                                [
                                    "805",
                                    0,
                                    0,
                                    {}
                                ]
                            ]
                        ]
                    },
                    {
                        "class_name": "ZeroPadding2D",
                        "config": {
                            "name": "807_pad",
                            "trainable": true,
                            "dtype": "float32",
                            "padding": [
                                [
                                    1,
                                    1
                                ],
                                [
                                    1,
                                    1
                                ]
                            ],
                            "data_format": "channels_first"
                        },
                        "name": "807_pad",
                        "inbound_nodes": [
                            [
                                [
                                    "806",
                                    0,
                                    0,
                                    {}
                                ]
                            ]
                        ]
                    },
                    {
                        "class_name": "Conv2D",
                        "config": {
                            "name": "807",
                            "trainable": true,
                            "dtype": "float32",
                            "filters": 32,
                            "kernel_size": [
                                3,
                                3
                            ],
                            "strides": [
                                1,
                                1
                            ],
                            "padding": "valid",
                            "data_format": "channels_first",
                            "dilation_rate": [
                                1,
                                1
                            ],
                            "groups": 1,
                            "activation": "linear",
                            "use_bias": false,
                            "kernel_initializer": {
                                "class_name": "Zeros",
                                "config": {}
                            },
                            "bias_initializer": {
                                "class_name": "Zeros",
                                "config": {}
                            },
                            "kernel_regularizer": null,
                            "bias_regularizer": null,
                            "activity_regularizer": null,
                            "kernel_constraint": null,
                            "bias_constraint": null
                        },
                        "name": "807",
                        "inbound_nodes": [
                            [
                                [
                                    "807_pad",
                                    0,
                                    0,
                                    {}
                                ]
                            ]
                        ]
                    },
                    {
                        "class_name": "Concatenate",
                        "config": {
                            "name": "808",
                            "trainable": true,
                            "dtype": "float32",
                            "axis": 1
                        },
                        "name": "808",
                        "inbound_nodes": [
                            [
                                [
                                    "779",
                                    0,
                                    0,
                                    {}
                                ],
                                [
                                    "786",
                                    0,
                                    0,
                                    {}
                                ],
                                [
                                    "793",
                                    0,
                                    0,
                                    {}
                                ],
                                [
                                    "800",
                                    0,
                                    0,
                                    {}
                                ],
                                [
                                    "807",
                                    0,
                                    0,
                                    {}
                                ]
                            ]
                        ]
                    },
                    {
                        "class_name": "BatchNormalization",
                        "config": {
                            "name": "809",
                            "trainable": true,
                            "dtype": "float32",
                            "axis": [
                                1
                            ],
                            "momentum": 0.8999999761581421,
                            "epsilon": 9.999999747378752e-06,
                            "center": true,
                            "scale": true,
                            "beta_initializer": {
                                "class_name": "Zeros",
                                "config": {}
                            },
                            "gamma_initializer": {
                                "class_name": "Ones",
                                "config": {}
                            },
                            "moving_mean_initializer": {
                                "class_name": "Zeros",
                                "config": {}
                            },
                            "moving_variance_initializer": {
                                "class_name": "Ones",
                                "config": {}
                            },
                            "beta_regularizer": null,
                            "gamma_regularizer": null,
                            "beta_constraint": null,
                            "gamma_constraint": null
                        },
                        "name": "809",
                        "inbound_nodes": [
                            [
                                [
                                    "808",
                                    0,
                                    0,
                                    {}
                                ]
                            ]
                        ]
                    },
                    {
                        "class_name": "Activation",
                        "config": {
                            "name": "810",
                            "trainable": true,
                            "dtype": "float32",
                            "activation": "relu"
                        },
                        "name": "810",
                        "inbound_nodes": [
                            [
                                [
                                    "809",
                                    0,
                                    0,
                                    {}
                                ]
                            ]
                        ]
                    },
                    {
                        "class_name": "Conv2D",
                        "config": {
                            "name": "811",
                            "trainable": true,
                            "dtype": "float32",
                            "filters": 128,
                            "kernel_size": [
                                1,
                                1
                            ],
                            "strides": [
                                1,
                                1
                            ],
                            "padding": "valid",
                            "data_format": "channels_first",
                            "dilation_rate": [
                                1,
                                1
                            ],
                            "groups": 1,
                            "activation": "linear",
                            "use_bias": false,
                            "kernel_initializer": {
                                "class_name": "Zeros",
                                "config": {}
                            },
                            "bias_initializer": {
                                "class_name": "Zeros",
                                "config": {}
                            },
                            "kernel_regularizer": null,
                            "bias_regularizer": null,
                            "activity_regularizer": null,
                            "kernel_constraint": null,
                            "bias_constraint": null
                        },
                        "name": "811",
                        "inbound_nodes": [
                            [
                                [
                                    "810",
                                    0,
                                    0,
                                    {}
                                ]
                            ]
                        ]
                    },
                    {
                        "class_name": "BatchNormalization",
                        "config": {
                            "name": "812",
                            "trainable": true,
                            "dtype": "float32",
                            "axis": [
                                1
                            ],
                            "momentum": 0.8999999761581421,
                            "epsilon": 9.999999747378752e-06,
                            "center": true,
                            "scale": true,
                            "beta_initializer": {
                                "class_name": "Zeros",
                                "config": {}
                            },
                            "gamma_initializer": {
                                "class_name": "Ones",
                                "config": {}
                            },
                            "moving_mean_initializer": {
                                "class_name": "Zeros",
                                "config": {}
                            },
                            "moving_variance_initializer": {
                                "class_name": "Ones",
                                "config": {}
                            },
                            "beta_regularizer": null,
                            "gamma_regularizer": null,
                            "beta_constraint": null,
                            "gamma_constraint": null
                        },
                        "name": "812",
                        "inbound_nodes": [
                            [
                                [
                                    "811",
                                    0,
                                    0,
                                    {}
                                ]
                            ]
                        ]
                    },
                    {
                        "class_name": "Activation",
                        "config": {
                            "name": "813",
                            "trainable": true,
                            "dtype": "float32",
                            "activation": "relu"
                        },
                        "name": "813",
                        "inbound_nodes": [
                            [
                                [
                                    "812",
                                    0,
                                    0,
                                    {}
                                ]
                            ]
                        ]
                    },
                    {
                        "class_name": "ZeroPadding2D",
                        "config": {
                            "name": "814_pad",
                            "trainable": true,
                            "dtype": "float32",
                            "padding": [
                                [
                                    1,
                                    1
                                ],
                                [
                                    1,
…
                    "shape": [
                        416
                    ],
                    "dtype": "float32"
                },
                {
                    "name": "844/moving_mean",
                    "shape": [
                        416
                    ],
                    "dtype": "float32"
                },
                {
                    "name": "844/moving_variance",
                    "shape": [
                        416
                    ],
                    "dtype": "float32"
                },
                {
                    "name": "846/kernel",
                    "shape": [
                        1,
                        1,
                        416,
                        128
                    ],
                    "dtype": "float32"
                },
                {
                    "name": "847/gamma",
                    "shape": [
                        128
                    ],
                    "dtype": "float32"
                },
                {
                    "name": "847/beta",
                    "shape": [
                        128
                    ],
                    "dtype": "float32"
                },
                {
                    "name": "847/moving_mean",
                    "shape": [
                        128
                    ],
                    "dtype": "float32"
                },
                {
                    "name": "847/moving_variance",
                    "shape": [
                        128
                    ],
                    "dtype": "float32"
                },
                {
                    "name": "849/kernel",
                    "shape": [
                        3,
                        3,
                        128,
                        32
                    ],
                    "dtype": "float32"
                },
                {
                    "name": "851/gamma",
                    "shape": [
                        448
                    ],
                    "dtype": "float32"
                },
                {
                    "name": "851/beta",
                    "shape": [
                        448
                    ],
                    "dtype": "float32"
                },
                {
                    "name": "851/moving_mean",
                    "shape": [
                        448
                    ],
                    "dtype": "float32"
                },
                {
                    "name": "851/moving_variance",
                    "shape": [
                        448
                    ],
                    "dtype": "float32"
                },
                {
                    "name": "853/kernel",
                    "shape": [
                        1,
                        1,
                        448,
                        128
                    ],
                    "dtype": "float32"
                },
                {
                    "name": "854/gamma",
                    "shape": [
                        128
                    ],
                    "dtype": "float32"
                },
                {
                    "name": "854/beta",
                    "shape": [
                        128
                    ],
                    "dtype": "float32"
                },
                {
                    "name": "854/moving_mean",
                    "shape": [
                        128
                    ],
                    "dtype": "float32"
                },
                {
                    "name": "854/moving_variance",
                    "shape": [
                        128
                    ],
                    "dtype": "float32"
                },
                {
                    "name": "856/kernel",
                    "shape": [
                        3,
                        3,
                        128,
                        32
                    ],
                    "dtype": "float32"
                },
                {
                    "name": "858/gamma",
                    "shape": [
                        480
                    ],
                    "dtype": "float32"
                },
                {
                    "name": "858/beta",
                    "shape": [
                        480
                    ],
                    "dtype": "float32"
                },
                {
                    "name": "858/moving_mean",
                    "shape": [
                        480
                    ],
                    "dtype": "float32"
                },
                {
                    "name": "858/moving_variance",
                    "shape": [
                        480
                    ],
                    "dtype": "float32"
                },
                {
                    "name": "860/kernel",
                    "shape": [
                        1,
                        1,
                        480,
                        128
                    ],
                    "dtype": "float32"
                },
                {
                    "name": "861/gamma",
                    "shape": [
                        128
                    ],
                    "dtype": "float32"
                },
                {
                    "name": "861/beta",
                    "shape": [
                        128
                    ],
                    "dtype": "float32"
                },
                {
                    "name": "861/moving_mean",
                    "shape": [
                        128
                    ],
                    "dtype": "float32"
                },
                {
                    "name": "861/moving_variance",
                    "shape": [
                        128
                    ],
                    "dtype": "float32"
                },
                {
                    "name": "863/kernel",
                    "shape": [
                        3,
                        3,
                        128,
                        32
                    ],
                    "dtype": "float32"
                },
                {
                    "name": "865/gamma",
                    "shape": [
                        512
                    ],
                    "dtype": "float32"
                },
                {
                    "name": "865/beta",
                    "shape": [
                        512
                    ],
                    "dtype": "float32"
                },
                {
                    "name": "865/moving_mean",
                    "shape": [
                        512
                    ],
                    "dtype": "float32"
                },
                {
                    "name": "865/moving_variance",
                    "shape": [
                        512
                    ],
                    "dtype": "float32"
                },
                {
                    "name": "867/kernel",
                    "shape": [
                        1,
                        1,
                        512,
                        256
                    ],
                    "dtype": "float32"
                },
                {
                    "name": "871/gamma",
                    "shape": [
                        256
                    ],
                    "dtype": "float32"
                },
                {
                    "name": "871/beta",
                    "shape": [
                        256
                    ],
                    "dtype": "float32"
                },
                {
                    "name": "871/moving_mean",
                    "shape": [
                        256
                    ],
                    "dtype": "float32"
                },
                {
                    "name": "871/moving_variance",
                    "shape": [
                        256
                    ],
                    "dtype": "float32"
                },
                {
                    "name": "873/kernel",
                    "shape": [
                        1,
                        1,
                        256,
                        128
                    ],
                    "dtype": "float32"
                },
                {
                    "name": "874/gamma",
                    "shape": [
                        128
                    ],
                    "dtype": "float32"
                },
                {
                    "name": "874/beta",
                    "shape": [
                        128
                    ],
                    "dtype": "float32"
                },
                {
                    "name": "874/moving_mean",
                    "shape": [
                        128
                    ],
                    "dtype": "float32"
                },
                {
                    "name": "874/moving_variance",
                    "shape": [
                        128
                    ],
                    "dtype": "float32"
                },
                {
                    "name": "876/kernel",
                    "shape": [
                        3,
                        3,
                        128,
                        32
                    ],
                    "dtype": "float32"
                },
                {
                    "name": "878/gamma",
                    "shape": [
                        288
                    ],
                    "dtype": "float32"
                },
                {
                    "name": "878/beta",
                    "shape": [
                        288
                    ],
                    "dtype": "float32"
                },
                {
                    "name": "878/moving_mean",
                    "shape": [
                        288
                    ],
                    "dtype": "float32"
                },
                {
                    "name": "878/moving_variance",
                    "shape": [
                        288
                    ],
                    "dtype": "float32"
                },
                {
                    "name": "880/kernel",
                    "shape": [
                        1,
                        1,
                        288,
                        128
                    ],
                    "dtype": "float32"
                },
                {
                    "name": "881/gamma",
                    "shape": [
                        128
                    ],
                    "dtype": "float32"
                },
                {
                    "name": "881/beta",
                    "shape": [
                        128
                    ],
                    "dtype": "float32"
                },
                {
                    "name": "881/moving_mean",
                    "shape": [
                        128
                    ],
                    "dtype": "float32"
                },
                {
                    "name": "881/moving_variance",
                    "shape": [
                        128
                    ],
                    "dtype": "float32"
                },
                {
                    "name": "883/kernel",
                    "shape": [
                        3,
                        3,
                        128,
                        32
                    ],
                    "dtype": "float32"
                },
                {
                    "name": "885/gamma",
                    "shape": [
                        320
                    ],
                    "dtype": "float32"
                },
                {
                    "name": "885/beta",
                    "shape": [
                        320
                    ],
                    "dtype": "float32"
                },
                {
                    "name": "885/moving_mean",
                    "shape": [
                        320
                    ],
                    "dtype": "float32"
                },
                {
                    "name": "885/moving_variance",
                    "shape": [
                        320
                    ],
                    "dtype": "float32"
                },
                {
                    "name": "887/kernel",
                    "shape": [
                        1,
                        1,
                        320,
                        128
                    ],
                    "dtype": "float32"
                },
                {
                    "name": "888/gamma",
                    "shape": [
                        128
                    ],
                    "dtype": "float32"
                },
                {
                    "name": "888/beta",
                    "shape": [
                        128
                    ],
                    "dtype": "float32"
                },
                {
                    "name": "888/moving_mean",
                    "shape": [
                        128
                    ],
                    "dtype": "float32"
                },
                {
                    "name": "888/moving_variance",
                    "shape": [
                        128
                    ],
                    "dtype": "float32"
                },
                {
                    "name": "890/kernel",
                    "shape": [
                        3,
                        3,
                        128,
                        32
                    ],
                    "dtype": "float32"
                },
                {
                    "name": "892/gamma",
                    "shape": [
                        352
                    ],
                    "dtype": "float32"
                },
                {
                    "name": "892/beta",
                    "shape": [
                        352
                    ],
                    "dtype": "float32"
                },
                {
                    "name": "892/moving_mean",
                    "shape": [
                        352
                    ],
                    "dtype": "float32"
                },
                {
                    "name": "892/moving_variance",
                    "shape": [
                        352
                    ],
                    "dtype": "float32"
                },
                {
                    "name": "894/kernel",
                    "shape": [
                        1,
                        1,
                        352,
                        128
                    ],
                    "dtype": "float32"
                },
                {
                    "name": "895/gamma",
                    "shape": [
                        128
                    ],
                    "dtype": "float32"
                },
                {
                    "name": "895/beta",
                    "shape": [
                        128
                    ],
                    "dtype": "float32"
                },
                {
                    "name": "895/moving_mean",
                    "shape": [
                        128
                    ],
                    "dtype": "float32"
                },
                {
                    "name": "895/moving_variance",
                    "shape": [
                        128
                    ],
                    "dtype": "float32"
                },
                {
                    "name": "897/kernel",
                    "shape": [
                        3,
                        3,
                        128,
                        32
                    ],
                    "dtype": "float32"
                },
                {
                    "name": "899/gamma",
                    "shape": [
                        384
                    ],
                    "dtype": "float32"
                },
                {
                    "name": "899/beta",
                    "shape": [
                        384
                    ],
                    "dtype": "float32"
                },
                {
                    "name": "899/moving_mean",
                    "shape": [
                        384
                    ],
                    "dtype": "float32"
                },
                {
                    "name": "899/moving_variance",
                    "shape": [
                        384
                    ],
                    "dtype": "float32"
                },
                {
                    "name": "901/kernel",
                    "shape": [
                        1,
                        1,
                        384,
                        128
                    ],
                    "dtype": "float32"
                },
                {
                    "name": "902/gamma",
                    "shape": [
                        128
                    ],
                    "dtype": "float32"
                },
                {
                    "name": "902/beta",
                    "shape": [
                        128
                    ],
                    "dtype": "float32"
                },
                {
                    "name": "902/moving_mean",
                    "shape": [
                        128
                    ],
                    "dtype": "float32"
                },
                {
                    "name": "902/moving_variance",
                    "shape": [
                        128
                    ],
                    "dtype": "float32"
                },
                {
                    "name": "904/kernel",
                    "shape": [
                        3,
                        3,
                        128,
                        32
                    ],
                    "dtype": "float32"
                },
                {
                    "name": "906/gamma",
                    "shape": [
                        416
                    ],
                    "dtype": "float32"
                },
                {
                    "name": "906/beta",
                    "shape": [
                        416
                    ],
                    "dtype": "float32"
                },
                {
                    "name": "906/moving_mean",
                    "shape": [
                        416
                    ],
                    "dtype": "float32"
                },
                {
                    "name": "906/moving_variance",
                    "shape": [
                        416
                    ],
                    "dtype": "float32"
                },
                {
                    "name": "908/kernel",
                    "shape": [
                        1,
                        1,
                        416,
                        128
                    ],
                    "dtype": "float32"
                },
                {
                    "name": "909/gamma",
                    "shape": [
                        128
                    ],
                    "dtype": "float32"
                },
                {
                    "name": "909/beta",
                    "shape": [
                        128
                    ],
                    "dtype": "float32"
                },
                {
                    "name": "909/moving_mean",
                    "shape": [
                        128
                    ],
                    "dtype": "float32"
                },
                {
                    "name": "909/moving_variance",
                    "shape": [
                        128
                    ],
                    "dtype": "float32"
                },
                {
                    "name": "911/kernel",
                    "shape": [
                        3,
                        3,
                        128,
                        32
                    ],
                    "dtype": "float32"
                },
                {
                    "name": "913/gamma",
                    "shape": [
                        448
                    ],
                    "dtype": "float32"
                },
                {
                    "name": "913/beta",
                    "shape": [
                        448
                    ],
                    "dtype": "float32"
                },
                {
                    "name": "913/moving_mean",
                    "shape": [
                        448
                    ],
                    "dtype": "float32"
                },
                {
                    "name": "913/moving_variance",
                    "shape": [
                        448
                    ],
                    "dtype": "float32"
                },
                {
                    "name": "915/kernel",
                    "shape": [
                        1,
                        1,
                        448,
                        128
                    ],
                    "dtype": "float32"
                },
                {
                    "name": "916/gamma",
                    "shape": [
                        128
                    ],
                    "dtype": "float32"
                },
                {
                    "name": "916/beta",
                    "shape": [
                        128
                    ],
                    "dtype": "float32"
                },
                {
                    "name": "916/moving_mean",
                    "shape": [
                        128
                    ],
                    "dtype": "float32"
                },
                {
                    "name": "916/moving_variance",
                    "shape": [
                        128
                    ],
                    "dtype": "float32"
                },
                {
                    "name": "918/kernel",
                    "shape": [
                        3,
                        3,
                        128,
                        32
                    ],
                    "dtype": "float32"
                },
                {
                    "name": "920/gamma",
                    "shape": [
                        480
                    ],
                    "dtype": "float32"
                },
                {
                    "name": "920/beta",
                    "shape": [
                        480
                    ],
                    "dtype": "float32"
                },
                {
                    "name": "920/moving_mean",
                    "shape": [
                        480
                    ],
                    "dtype": "float32"
                },
                {
                    "name": "920/moving_variance",
                    "shape": [
                        480
                    ],
                    "dtype": "float32"
                },
                {
                    "name": "922/kernel",
                    "shape": [
                        1,
                        1,
                        480,
                        128
                    ],
                    "dtype": "float32"
                },
                {
                    "name": "923/gamma",
                    "shape": [
                        128
                    ],
                    "dtype": "float32"
                },
                {
                    "name": "923/beta",
                    "shape": [
                        128
                    ],
                    "dtype": "float32"
                },
                {
                    "name": "923/moving_mean",
                    "shape": [
                        128
                    ],
                    "dtype": "float32"
                },
                {
                    "name": "923/moving_variance",
                    "shape": [
                        128
                    ],
                    "dtype": "float32"
                },
                {
                    "name": "925/kernel",
                    "shape": [
                        3,
                        3,
                        128,
                        32
                    ],
                    "dtype": "float32"
                },
                {
                    "name": "927/gamma",
                    "shape": [
                        512
                    ],
                    "dtype": "float32"
                },
                {
                    "name": "927/beta",
                    "shape": [
                        512
                    ],
                    "dtype": "float32"
                },
                {
                    "name": "927/moving_mean",
                    "shape": [
                        512
                    ],
                    "dtype": "float32"
                },
                {
                    "name": "927/moving_variance",
                    "shape": [
                        512
                    ],
                    "dtype": "float32"
                },
                {
                    "name": "929/kernel",
                    "shape": [
                        1,
                        1,
                        512,
                        128
                    ],
                    "dtype": "float32"
                },
                {
                    "name": "930/gamma",
                    "shape": [
                        128
                    ],
                    "dtype": "float32"
                },
                {
                    "name": "930/beta",
                    "shape": [
                        128
                    ],
                    "dtype": "float32"
                },
                {
                    "name": "930/moving_mean",
                    "shape": [
                        128
                    ],
                    "dtype": "float32"
                },
                {
                    "name": "930/moving_variance",
                    "shape": [
                        128
                    ],
                    "dtype": "float32"
                },
                {
                    "name": "932/kernel",
                    "shape": [
                        3,
                        3,
                        128,
                        32
                    ],
                    "dtype": "float32"
                },
                {
                    "name": "934/gamma",
                    "shape": [
                        544
                    ],
                    "dtype": "float32"
                },
                {
                    "name": "934/beta",
                    "shape": [
                        544
                    ],
                    "dtype": "float32"
                },
                {
                    "name": "934/moving_mean",
                    "shape": [
                        544
                    ],
                    "dtype": "float32"
                },
                {
                    "name": "934/moving_variance",
                    "shape": [
                        544
                    ],
                    "dtype": "float32"
                },
                {
                    "name": "936/kernel",
                    "shape": [
                        1,
                        1,
                        544,
                        128
                    ],
                    "dtype": "float32"
                },
                {
                    "name": "937/gamma",
                    "shape": [
                        128
                    ],
                    "dtype": "float32"
                },
                {
                    "name": "937/beta",
                    "shape": [
                        128
                    ],
                    "dtype": "float32"
                },
                {
                    "name": "937/moving_mean",
                    "shape": [
                        128
                    ],
                    "dtype": "float32"
                },
                {
                    "name": "937/moving_variance",
                    "shape": [
                        128
                    ],
                    "dtype": "float32"
                },
                {
                    "name": "939/kernel",
                    "shape": [
                        3,
                        3,
                        128,
                        32
                    ],
                    "dtype": "float32"
                },
                {
                    "name": "941/gamma",
                    "shape": [
                        576
                    ],
                    "dtype": "float32"
                },
                {
                    "name": "941/beta",
                    "shape": [
                        576
                    ],
                    "dtype": "float32"
                },
                {
                    "name": "941/moving_mean",
                    "shape": [
                        576
                    ],
                    "dtype": "float32"
                },
                {
                    "name": "941/moving_variance",
                    "shape": [
                        576
                    ],
                    "dtype": "float32"
                },
                {
                    "name": "943/kernel",
                    "shape": [
                        1,
                        1,
                        576,
                        128
                    ],
                    "dtype": "float32"
                },
                {
                    "name": "944/gamma",
                    "shape": [
                        128
                    ],
                    "dtype": "float32"
                },
                {
                    "name": "944/beta",
                    "shape": [
                        128
                    ],
                    "dtype": "float32"
                },
                {
                    "name": "944/moving_mean",
                    "shape": [
                        128
                    ],
                    "dtype": "float32"
                },
                {
                    "name": "944/moving_variance",
                    "shape": [
                        128
                    ],
                    "dtype": "float32"
                },
                {
                    "name": "946/kernel",
                    "shape": [
                        3,
                        3,
                        128,
                        32
                    ],
                    "dtype": "float32"
                },
                {
                    "name": "948/gamma",
                    "shape": [
                        608
                    ],
                    "dtype": "float32"
                },
                {
                    "name": "948/beta",
                    "shape": [
                        608
                    ],
                    "dtype": "float32"
                },
                {
                    "name": "948/moving_mean",
                    "shape": [
                        608
                    ],
                    "dtype": "float32"
                },
                {
                    "name": "948/moving_variance",
                    "shape": [
                        608
                    ],
                    "dtype": "float32"
                },
                {
                    "name": "950/kernel",
                    "shape": [
                        1,
                        1,
                        608,
                        128
                    ],
                    "dtype": "float32"
                },
                {
                    "name": "951/gamma",
                    "shape": [
                        128
                    ],
                    "dtype": "float32"
                },
                {
                    "name": "951/beta",
                    "shape": [
                        128
                    ],
                    "dtype": "float32"
                },
                {
                    "name": "951/moving_mean",
                    "shape": [
                        128
                    ],
                    "dtype": "float32"
                },
                {
                    "name": "951/moving_variance",
                    "shape": [
                        128
                    ],
                    "dtype": "float32"
                },
                {
                    "name": "953/kernel",
                    "shape": [
                        3,
                        3,
                        128,
                        32
                    ],
                    "dtype": "float32"
                },
                {
                    "name": "955/gamma",
                    "shape": [
                        640
                    ],
                    "dtype": "float32"
                },
                {
                    "name": "955/beta",
                    "shape": [
                        640
                    ],
                    "dtype": "float32"
                },
                {
                    "name": "955/moving_mean",
                    "shape": [
                        640
                    ],
                    "dtype": "float32"
                },
                {
                    "name": "955/moving_variance",
                    "shape": [
                        640
                    ],
                    "dtype": "float32"
                },
                {
                    "name": "957/kernel",
                    "shape": [
                        1,
                        1,
                        640,
                        128
                    ],
                    "dtype": "float32"
                },
                {
                    "name": "958/gamma",
                    "shape": [
                        128
                    ],
                    "dtype": "float32"
                },
                {
                    "name": "958/beta",
                    "shape": [
                        128
                    ],
                    "dtype": "float32"
                },
                {
                    "name": "958/moving_mean",
                    "shape": [
                        128
                    ],
                    "dtype": "float32"
                },
                {
                    "name": "958/moving_variance",
                    "shape": [
                        128
                    ],
                    "dtype": "float32"
                },
                {
                    "name": "960/kernel",
                    "shape": [
                        3,
                        3,
                        128,
                        32
                    ],
                    "dtype": "float32"
                },
                {
                    "name": "962/gamma",
                    "shape": [
                        672
                    ],
                    "dtype": "float32"
                },
                {
                    "name": "962/beta",
                    "shape": [
                        672
                    ],
                    "dtype": "float32"
                },
                {
                    "name": "962/moving_mean",
                    "shape": [
                        672
                    ],
                    "dtype": "float32"
                },
                {
                    "name": "962/moving_variance",
                    "shape": [
                        672
                    ],
                    "dtype": "float32"
                },
                {
                    "name": "964/kernel",
                    "shape": [
                        1,
                        1,
                        672,
                        128
                    ],
                    "dtype": "float32"
                },
                {
                    "name": "965/gamma",
                    "shape": [
                        128
                    ],
                    "dtype": "float32"
                },
                {
                    "name": "965/beta",
                    "shape": [
                        128
                    ],
                    "dtype": "float32"
                },
                {
                    "name": "965/moving_mean",
                    "shape": [
                        128
                    ],
                    "dtype": "float32"
                },
                {
                    "name": "965/moving_variance",
                    "shape": [
                        128
                    ],
                    "dtype": "float32"
                },
                {
                    "name": "967/kernel",
                    "shape": [
                        3,
                        3,
                        128,
                        32
                    ],
                    "dtype": "float32"
                },
                {
                    "name": "969/gamma",
                    "shape": [
                        704
                    ],
                    "dtype": "float32"
                },
                {
                    "name": "969/beta",
                    "shape": [
                        704
                    ],
                    "dtype": "float32"
                },
                {
                    "name": "969/moving_mean",
                    "shape": [
                        704
                    ],
                    "dtype": "float32"
                },
                {
                    "name": "969/moving_variance",
                    "shape": [
                        704
                    ],
                    "dtype": "float32"
                },
                {
                    "name": "971/kernel",
                    "shape": [
                        1,
                        1,
                        704,
                        128
                    ],
                    "dtype": "float32"
                },
                {
                    "name": "972/gamma",
                    "shape": [
                        128
                    ],
                    "dtype": "float32"
                },
                {
                    "name": "972/beta",
                    "shape": [
                        128
                    ],
                    "dtype": "float32"
                },
                {
                    "name": "972/moving_mean",
                    "shape": [
                        128
                    ],
                    "dtype": "float32"
                },
                {
                    "name": "972/moving_variance",
                    "shape": [
                        128
                    ],
                    "dtype": "float32"
                },
                {
                    "name": "974/kernel",
                    "shape": [
                        3,
                        3,
                        128,
                        32
                    ],
                    "dtype": "float32"
                },
                {
                    "name": "976/gamma",
                    "shape": [
                        736
                    ],
                    "dtype": "float32"
                },
                {
                    "name": "976/beta",
                    "shape": [
                        736
                    ],
                    "dtype": "float32"
                },
                {
                    "name": "976/moving_mean",
                    "shape": [
                        736
                    ],
                    "dtype": "float32"
                },
                {
                    "name": "976/moving_variance",
                    "shape": [
                        736
                    ],
                    "dtype": "float32"
                },
                {
                    "name": "978/kernel",
                    "shape": [
                        1,
                        1,
                        736,
                        128
                    ],
                    "dtype": "float32"
                },
                {
                    "name": "979/gamma",
                    "shape": [
                        128
                    ],
                    "dtype": "float32"
                },
                {
                    "name": "979/beta",
                    "shape": [
                        128
                    ],
                    "dtype": "float32"
                },
                {
                    "name": "979/moving_mean",
                    "shape": [
                        128
                    ],
                    "dtype": "float32"
                },
                {
                    "name": "979/moving_variance",
                    "shape": [
                        128
                    ],
                    "dtype": "float32"
                },
                {
                    "name": "981/kernel",
                    "shape": [
                        3,
                        3,
                        128,
                        32
                    ],
                    "dtype": "float32"
                },
                {
                    "name": "983/gamma",
                    "shape": [
                        768
                    ],
                    "dtype": "float32"
                },
                {
                    "name": "983/beta",
                    "shape": [
                        768
                    ],
                    "dtype": "float32"
                },
                {
                    "name": "983/moving_mean",
                    "shape": [
                        768
                    ],
                    "dtype": "float32"
                },
                {
                    "name": "983/moving_variance",
                    "shape": [
                        768
                    ],
                    "dtype": "float32"
                },
                {
                    "name": "985/kernel",
                    "shape": [
                        1,
                        1,
                        768,
                        128
                    ],
                    "dtype": "float32"
                },
                {
                    "name": "986/gamma",
                    "shape": [
                        128
                    ],
                    "dtype": "float32"
                },
                {
                    "name": "986/beta",
                    "shape": [
                        128
                    ],
                    "dtype": "float32"
                },
                {
                    "name": "986/moving_mean",
                    "shape": [
                        128
                    ],
                    "dtype": "float32"
                },
                {
                    "name": "986/moving_variance",
                    "shape": [
                        128
                    ],
                    "dtype": "float32"
                },
                {
                    "name": "988/kernel",
                    "shape": [
                        3,
                        3,
                        128,
                        32
                    ],
                    "dtype": "float32"
                },
                {
                    "name": "990/gamma",
                    "shape": [
                        800
                    ],
                    "dtype": "float32"
                },
                {
                    "name": "990/beta",
                    "shape": [
                        800
                    ],
                    "dtype": "float32"
                },
                {
                    "name": "990/moving_mean",
                    "shape": [
                        800
                    ],
                    "dtype": "float32"
                },
                {
                    "name": "990/moving_variance",
                    "shape": [
                        800
                    ],
                    "dtype": "float32"
                },
                {
                    "name": "992/kernel",
                    "shape": [
                        1,
                        1,
                        800,
                        128
                    ],
                    "dtype": "float32"
                },
                {
                    "name": "993/gamma",
                    "shape": [
                        128
                    ],
                    "dtype": "float32"
                },
                {
                    "name": "993/beta",
                    "shape": [
                        128
                    ],
                    "dtype": "float32"
                },
                {
                    "name": "993/moving_mean",
                    "shape": [
                        128
                    ],
                    "dtype": "float32"
                },
                {
                    "name": "993/moving_variance",
                    "shape": [
                        128
                    ],
                    "dtype": "float32"
                },
                {
                    "name": "995/kernel",
                    "shape": [
                        3,
                        3,
                        128,
                        32
                    ],
                    "dtype": "float32"
                },
                {
                    "name": "997/gamma",
                    "shape": [
                        832
                    ],
                    "dtype": "float32"
                },
                {
                    "name": "997/beta",
                    "shape": [
                        832
                    ],
                    "dtype": "float32"
                },
                {
                    "name": "997/moving_mean",
                    "shape": [
                        832
                    ],
                    "dtype": "float32"
                },
                {
                    "name": "997/moving_variance",
                    "shape": [
                        832
                    ],
                    "dtype": "float32"
                },
                {
                    "name": "999/kernel",
                    "shape": [
                        1,
                        1,
                        832,
                        128
                    ],
                    "dtype": "float32"
                },
                {
                    "name": "output/kernel",
                    "shape": [
                        1024,
                        14
                    ],
                    "dtype": "float32"
                },
                {
                    "name": "output/bias",
                    "shape": [
                        14
                    ],
                    "dtype": "float32"
                }
            ]
        }
    ]
}